…
  "hidden_size": 3584,
  "initializer_range": 0.02,
  "intermediate_size": 18944,
  "max_position_embeddings": 32768,
  "max_window_layers": 28,
  "model_type": "qwen2",
  "num_attention_heads": 28,
  "num_hidden_layers": 28,
  "num_key_value_heads": 4,
  "rms_norm_eps": 1e-06,
  "rope_scaling": null,
  "rope_theta": 1000000.0,
  "sliding_window": null,
  "tie_word_embeddings": false,
  "torch_dtype": "bfloat16",
  "transformers_version": "4.46.3",
  "use_cache": true,
  "use_sliding_window": false,
  "vocab_size": 152064
}

model_before lora booster:: Qwen2ForCausalLM(
  (model): Qwen2Model(
    (embed_tokens): Embedding(152064, 3584)
    (layers): ModuleList(
      (0-27): 28 x Qwen2DecoderLayer(
        (self_attn): Qwen2Attention(
          (q_proj): Linear(in_features=3584, out_features=3584, bias=True)
          (k_proj): Linear(in_features=3584, out_features=512, bias=True)
          (v_proj): Linear(in_features=3584, out_features=512, bias=True)
          (o_proj): Linear(in_features=3584, out_features=3584, bias=False)
          (rotary_emb): Qwen2RotaryEmbedding()
        )
        (mlp): Qwen2MLP(
          (gate_proj): Linear(in_features=3584, out_features=18944, bias=False)
          (up_proj): Linear(in_features=3584, out_features=18944, bias=False)
          (down_proj): Linear(in_features=18944, out_features=3584, bias=False)
          (act_fn): SiLU()
        )
        (input_layernorm): Qwen2RMSNorm((3584,), eps=1e-06)
        (post_attention_layernorm): Qwen2RMSNorm((3584,), eps=1e-06)
      )
    )
    (norm): Qwen2RMSNorm((3584,), eps=1e-06)
    (rotary_emb): Qwen2RotaryEmbedding()
  )
  (lm_head): Linear(in_features=3584, out_features=152064, bias=False)
)
target_modules before:: 
target_modules after:: ['down_proj', 'gate_proj', 'k_proj', 'o_proj', 'q_proj', 'up_proj', 'v_proj']
lora_config: LoraConfig(peft_type=<PeftType.LORA: 'LORA'>, auto_mapping=None, base_model_name_or_path=None, revision=None, task_type=<TaskType.CAUSAL_LM: 'CAUSAL_LM'>, inference_mode=False, r=8, target_modules={'v_proj', 
…
lora_config: LoraConfig(peft_type=<PeftType.LORA: 'LORA'>, auto_mapping=None, base_model_name_or_path=None, revision=None, task_type=<TaskType.CAUSAL_LM: 'CAUSAL_LM'>, inference_mode=False, r=8, target_modules={'q_proj', 'up_proj', 'o_proj', 'v_proj', 'gate_proj', 'down_proj', 'k_proj'}, lora_alpha=16, lora_dropout=0.0, fan_in_fan_out=False, bias='none', use_rslora=False, modules_to_save=None, init_lora_weights=True, layers_to_transform=None, layers_pattern=None, rank_pattern={}, alpha_pattern={}, megatron_config=None, megatron_core='megatron.core', loftq_config={}, use_dora=False, layer_replication=None, runtime_config=LoraRuntimeConfig(ephemeral_gpu_offload=False))
model_after lora booster:: PeftModelForCausalLM(
  (base_model): LoraModel(
    (model): Qwen2ForCausalLM(
      (model): Qwen2Model(
        (embed_tokens): Embedding(152064, 3584)
        (layers): ModuleList(
          (0-27): 28 x Qwen2DecoderLayer(
            (self_attn): Qwen2Attention(
              (q_proj): lora.Linear(
                (base_layer): Linear(in_features=3584, out_features=3584, bias=True)
                (lora_dropout): ModuleDict(
                  (default): Identity()
                )
                (lora_A): ModuleDict(
                  (default): Linear(in_features=3584, out_features=8, bias=False)
                )
                (lora_B): ModuleDict(
                  (default): Linear(in_features=8, out_features=3584, bias=False)
                )
                (lora_embedding_A): ParameterDict()
                (lora_embedding_B): ParameterDict()
                (lora_magnitude_vector): ModuleDict()
              )
              (k_proj): lora.Linear(
                (base_layer): Linear(in_features=3584, out_features=512, bias=True)
                (lora_dropout): ModuleDict(
                  (default): Identity()
                )
                (lora_A): ModuleDict(
                  (default): Linear(in_features=3584, out_features=8, bias=False)
                )
                (lora_B): ModuleDict(
                  (default): Linear(in_features=8, out_features=512, bias=False)
                )
                (lora_embedding_A): ParameterDict()
                (lora_embedding_B): ParameterDict()
                (lora_magnitude_vector): ModuleDict()
              )
              (v_proj): lora.Linear(
                (base_layer): Linear(in_features=3584, out_features=512, bias=True)
                (lora_dropout): ModuleDict(
                  (default): Identity()
                )
                (lora_A): ModuleDict(
                  (default): Linear(in_features=3584, out_features=8, bias=False)
                )
                (lora_B): ModuleDict(
                  (default): Linear(in_features=8, out_features=512, bias=False)
                )
                (lora_embedding_A): ParameterDict()
                (lora_embedding_B): ParameterDict()
                (lora_magnitude_vector): ModuleDict()
              )
              (o_proj): lora.Linear(
                (base_layer): Linear(in_features=3584, out_features=3584, bias=False)
                (lora_dropout): ModuleDict(
                  (default): Identity()
                )
                (lora_A): ModuleDict(
                  (default): Linear(in_features=3584, out_features=8, bias=False)
                )
                (lora_B): ModuleDict(
                  (default): Linear(in_features=8, out_features=3584, bias=False)
                )
                (lora_embedding_A): ParameterDict()
                (lora_embedding_B): ParameterDict()
                (lora_magnitude_vector): ModuleDict()
              )
              (rotary_emb): Qwen2RotaryEmbedding()
            )
            (mlp): Qwen2MLP(
              (gate_proj): lora.Linear(
                (base_layer): Linear(in_features=3584, out_features=18944, bias=False)
                (lora_dropout): ModuleDict(
                  (default): Identity()
                )
                (lora_A): ModuleDict(
                  (default): Linear(in_features=3584, out_features=8, bias=False)
                )
                (lora_B): ModuleDict(
                  (default): Linear(in_features=8, out_features=18944, bias=False)
                )
                (lora_embedding_A): ParameterDict()
                (lora_embedding_B): ParameterDict()
                (lora_magnitude_vector): ModuleDict()
              )
              (up_proj): lora.Linear(
                (base_layer): Linear(in_features=3584, out_features=18944, bias=False)
                (lora_dropout): ModuleDict(
                  (default): Identity()
                )
                (lora_A): ModuleDict(
                  (default): Linear(in_features=3584, out_features=8, bias=False)
                )
                (lora_B): ModuleDict(
                  (default): Linear(in_features=8, out_features=18944, bias=False)
                )
                (lora_embedding_A): ParameterDict()
                (lora_embedding_B): ParameterDict()
                (lora_magnitude_vector): ModuleDict()
              )
              (down_proj): lora.Linear(
                (base_layer): Linear(in_features=18944, out_features=3584, bias=False)
                (lora_dropout): ModuleDict(
                  (default): Identity()
                )
                (lora_A): ModuleDict(
                  (default): Linear(in_features=18944, out_features=8, bias=False)
                )
                (lora_B): ModuleDict(
                  (default): Linear(in_features=8, out_features=3584, bias=False)
                )
                (lora_embedding_A): ParameterDict()
                (lora_embedding_B): ParameterDict()
                (lora_magnitude_vector): ModuleDict()
              )
              (act_fn): SiLU()
            )
            (input_layernorm): Qwen2RMSNorm((3584,), eps=1e-06)
            (post_attention_layernorm): Qwen2RMSNorm((3584,), eps=1e-06)
          )
        )
        (norm): Qwen2RMSNorm((3584,), eps=1e-06)
        (rotary_emb): Qwen2RotaryEmbedding()
      )
      (lm_head): Linear(in_features=3584, out_features=152064, bias=False)
    )
  )
)
model_after lora booster:: PeftModelForCausalLM(
  (base_model): LoraModel(
    (model): Qwen2ForCausalLM(
      (model): Qwen2Model(
        (embed_tokens): Embedding(152064, 3584)
        (layers): ModuleList(
          (0-27): 28 x Qwen2DecoderLayer(
            (self_attn): Qwen2Attention(
              (q_proj): lora.Linear(
                (base_layer): Linear(in_features=3584, out_features=3584, bias=True)
                (lora_dropout): ModuleDict(
                  (default): Identity()
                )
                (lora_A): ModuleDict(
                  (default): Linear(in_features=3584, out_features=8, bias=False)
                )
                (lora_B): ModuleDict(
                  (default): Linear(in_features=8, out_features=3584, bias=False)
                )
                (lora_embedding_A): ParameterDict()
                (lora_embedding_B): ParameterDict()
                (lora_magnitude_vector): ModuleDict()
              )
              (k_proj): lora.Linear(
                (base_layer): Linear(in_features=3584, out_features=512, bias=True)
                (lora_dropout): ModuleDict(
                  (default): Identity()
                )
                (lora_A): ModuleDict(
                  (default): Linear(in_features=3584, out_features=8, bias=False)
                )
                (lora_B): ModuleDict(
                  (default): Linear(in_features=8, out_features=512, bias=False)
                )
                (lora_embedding_A): ParameterDict()
                (lora_embedding_B): ParameterDict()
                (lora_magnitude_vector): ModuleDict()
              )
              (v_proj): lora.Linear(
                (base_layer): Linear(in_features=3584, out_features=512, bias=True)
                (lora_dropout): ModuleDict(
                  (default): Identity()
                )
                (lora_A): ModuleDict(
                  (default): Linear(in_features=3584, out_features=8, bias=False)
                )
                (lora_B): ModuleDict(
                  (default): Linear(in_features=8, out_features=512, bias=False)
                )
                (lora_embedding_A): ParameterDict()
                (lora_embedding_B): ParameterDict()
                (lora_magnitude_vector): ModuleDict()
              )
              (o_proj): lora.Linear(
                (base_layer): Linear(in_features=3584, out_features=3584, bias=False)
                (lora_dropout): ModuleDict(
                  (default): Identity()
                )
                (lora_A): ModuleDict(
                  (default): Linear(in_features=3584, out_features=8, bias=False)
                )
                (lora_B): ModuleDict(
                  (default): Linear(in_features=8, out_features=3584, bias=False)
                )
                (lora_embedding_A): ParameterDict()
                (lora_embedding_B): ParameterDict()
                (lora_magnitude_vector): ModuleDict()
              )
              (rotary_emb): Qwen2RotaryEmbedding()
            )
            (mlp): Qwen2MLP(
              (gate_proj): lora.Linear(
                (base_layer): Linear(in_features=3584, out_features=18944, bias=False)
                (lora_dropout): ModuleDict(
                  (default): Identity()
                )
                (lora_A): ModuleDict(
                  (default): Linear(in_features=3584, out_features=8, bias=False)
                )
                (lora_B): ModuleDict(
                  (default): Linear(in_features=8, out_features=18944, bias=False)
                )
                (lora_embedding_A): ParameterDict()
                (lora_embedding_B): ParameterDict()
                (lora_magnitude_vector): ModuleDict()
              )
              (up_proj): lora.Linear(
                (base_layer): Linear(in_features=3584, out_features=18944, bias=False)
                (lora_dropout): ModuleDict(
                  (default): Identity()
                )
                (lora_A): ModuleDict(
                  (default): Linear(in_features=3584, out_features=8, bias=False)
                )
                (lora_B): ModuleDict(
                  (default): Linear(in_features=8, out_features=18944, bias=False)
                )
                (lora_embedding_A): ParameterDict()
                (lora_embedding_B): ParameterDict()
                (lora_magnitude_vector): ModuleDict()
              )
              (down_proj): lora.Linear(
                (base_layer): Linear(in_features=18944, out_features=3584, bias=False)
                (lora_dropout): ModuleDict(
                  (default): Identity()
                )
                (lora_A): ModuleDict(
                  (default): Linear(in_features=18944, out_features=8, bias=False)
                )
                (lora_B): ModuleDict(
                  (default): Linear(in_features=8, out_features=3584, bias=False)
                )
                (lora_embedding_A): ParameterDict()
                (lora_embedding_B): ParameterDict()
                (lora_magnitude_vector): ModuleDict()
              )
              (act_fn): SiLU()
            )
            (input_layernorm): Qwen2RMSNorm((3584,), eps=1e-06)
            (post_attention_layernorm): Qwen2RMSNorm((3584,), eps=1e-06)
          )
        )
        (norm): Qwen2RMSNorm((3584,), eps=1e-06)
        (rotary_emb): Qwen2RotaryEmbedding()
      )
      (lm_head): Linear(in_features=3584, out_features=152064, bias=False)
    )
  )
)
model_after ensure_hybrid_parallel_compatibility booster:: PeftModelForCausalLM(
  (base_model): LoraModel(
    (model): Qwen2ForCausalLM(
      (model): Qwen2Model(
        (embed_tokens): Embedding(152064, 3584)
        (layers): ModuleList(
          (0-27): 28 x Qwen2DecoderLayer(
            (self_attn): Qwen2Attention(
              (q_proj): lora.Linear(
                (base_layer): Linear(in_features=3584, out_features=3584, bias=True)
                (lora_dropout): ModuleDict(
                  (default): Identity()
                )
                (lora_A): ModuleDict(
                  (default): Linear(in_features=3584, out_features=8, bias=False)
                )
                (lora_B): ModuleDict(
                  (default): Linear(in_features=8, out_features=3584, bias=False)
                )
                (lora_embedding_A): ParameterDict()
                (lora_embedding_B): ParameterDict()
                (lora_magnitude_vector): ModuleDict()
              )
              (k_proj): lora.Linear(
                (base_layer): Linear(in_features=3584, out_features=512, bias=True)
                (lora_dropout): ModuleDict(
                  (default): Identity()
                )
                (lora_A): ModuleDict(
                  (default): Linear(in_features=3584, out_features=8, bias=False)
                )
                (lora_B): ModuleDict(
                  (default): Linear(in_features=8, out_features=512, bias=False)
                )
                (lora_embedding_A): ParameterDict()
                (lora_embedding_B): ParameterDict()
                (lora_magnitude_vector): ModuleDict()
              )
              (v_proj): lora.Linear(
                (base_layer): Linear(in_features=3584, out_features=512, bias=True)
                (lora_dropout): ModuleDict(
                  (default): Identity()
                )
                (lora_A): ModuleDict(
                  (default): Linear(in_features=3584, out_features=8, bias=False)
                )
                (lora_B): ModuleDict(
                  (default): Linear(in_features=8, out_features=512, bias=False)
                )
                (lora_embedding_A): ParameterDict()
                (lora_embedding_B): ParameterDict()
                (lora_magnitude_vector): ModuleDict()
              )
              (o_proj): lora.Linear(
                (base_layer): Linear(in_features=3584, out_features=3584, bias=False)
                (lora_dropout): ModuleDict(
                  (default): Identity()
                )
                (lora_A): ModuleDict(
                  (default): Linear(in_features=3584, out_features=8, bias=False)
                )
                (lora_B): ModuleDict(
                  (default): Linear(in_features=8, out_features=3584, bias=False)
                )
                (lora_embedding_A): ParameterDict()
                (lora_embedding_B): ParameterDict()
                (lora_magnitude_vector): ModuleDict()
              )
              (rotary_emb): Qwen2RotaryEmbedding()
            )
            (mlp): Qwen2MLP(
              (gate_proj): lora.Linear(
                (base_layer): Linear(in_features=3584, out_features=18944, bias=False)
                (lora_dropout): ModuleDict(
                  (default): Identity()
                )
                (lora_A): ModuleDict(
                  (default): Linear(in_features=3584, out_features=8, bias=False)
                )
                (lora_B): ModuleDict(
                  (default): Linear(in_features=8, out_features=18944, bias=False)
                )
                (lora_embedding_A): ParameterDict()
                (lora_embedding_B): ParameterDict()
                (lora_magnitude_vector): ModuleDict()
              )
              (up_proj): lora.Linear(
                (base_layer): Linear(in_features=3584, out_features=18944, bias=False)
                (lora_dropout): ModuleDict(
                  (default): Identity()
                )
                (lora_A): ModuleDict(
                  (default): Linear(in_features=3584, out_features=8, bias=False)
                )
                (lora_B): ModuleDict(
                  (default): Linear(in_features=8, out_features=18944, bias=False)
                )
                (lora_embedding_A): ParameterDict()
                (lora_embedding_B): ParameterDict()
                (lora_magnitude_vector): ModuleDict()
              )
              (down_proj): lora.Linear(
                (base_layer): Linear(in_features=18944, out_features=3584, bias=False)
                (lora_dropout): ModuleDict(
                  (default): Identity()
                )
                (lora_A): ModuleDict(
                  (default): Linear(in_features=18944, out_features=8, bias=False)
                )
                (lora_B): ModuleDict(
                  (default): Linear(in_features=8, out_features=3584, bias=False)
                )
                (lora_embedding_A): ParameterDict()
                (lora_embedding_B): ParameterDict()
                (lora_magnitude_vector): ModuleDict()
              )
              (act_fn): SiLU()
            )
            (input_layernorm): Qwen2RMSNorm((3584,), eps=1e-06)
            (post_attention_layernorm): Qwen2RMSNorm((3584,), eps=1e-06)
          )
        )
        (norm): Qwen2RMSNorm((3584,), eps=1e-06)
        (rotary_emb): Qwen2RotaryEmbedding()
      )
      (lm_head): Linear(in_features=3584, out_features=152064, bias=False)
      (embed_tokens): Embedding(152064, 3584)
      (layers): ModuleList(
        (0-27): 28 x Qwen2DecoderLayer(
          (self_attn): Qwen2Attention(
            (q_proj): lora.Linear(
              (base_layer): Linear(in_features=3584, out_features=3584, bias=True)
              (lora_dropout): ModuleDict(
                (default): Identity()
              )
              (lora_A): ModuleDict(
                (default): Linear(in_features=3584, out_features=8, bias=False)
              )
              (lora_B): ModuleDict(
                (default): Linear(in_features=8, out_features=3584, bias=False)
              )
              (lora_embedding_A): ParameterDict()
              (lora_embedding_B): ParameterDict()
              (lora_magnitude_vector): ModuleDict()
            )
            (k_proj): lora.Linear(
              (base_layer): Linear(in_features=3584, out_features=512, bias=True)
              (lora_dropout): ModuleDict(
                (default): Identity()
              )
              (lora_A): ModuleDict(
                (default): Linear(in_features=3584, out_features=8, bias=False)
              )
              (lora_B): ModuleDict(
                (default): Linear(in_features=8, out_features=512, bias=False)
              )
              (lora_embedding_A): ParameterDict()
              (lora_embedding_B): ParameterDict()
              (lora_magnitude_vector): ModuleDict()
            )
            (v_proj): lora.Linear(
              (base_layer): Linear(in_features=3584, out_features=512, bias=True)
              (lora_dropout): ModuleDict(
                (default): Identity()
              )
              (lora_A): ModuleDict(
                (default): Linear(in_features=3584, out_features=8, bias=False)
              )
              (lora_B): ModuleDict(
                (default): Linear(in_features=8, out_features=512, bias=False)
              )
              (lora_embedding_A): ParameterDict()
              (lora_embedding_B): ParameterDict()
              (lora_magnitude_vector): ModuleDict()
            )
            (o_proj): lora.Linear(
              (base_layer): Linear(in_features=3584, out_features=3584, bias=False)
              (lora_dropout): ModuleDict(
                (default): Identity()
              )
              (lora_A): ModuleDict(
                (default): Linear(in_features=3584, out_features=8, bias=False)
              )
              (lora_B): ModuleDict(
                (default): Linear(in_features=8, out_features=3584, bias=False)
              )
              (lora_embedding_A): ParameterDict()
              (lora_embedding_B): ParameterDict()
              (lora_magnitude_vector): ModuleDict()
            )
            (rotary_emb): Qwen2RotaryEmbedding()
          )
          (mlp): Qwen2MLP(
            (gate_proj): lora.Linear(
              (base_layer): Linear(in_features=3584, out_features=18944, bias=False)
              (lora_dropout): ModuleDict(
                (default): Identity()
              )
              (lora_A): ModuleDict(
                (default): Linear(in_features=3584, out_features=8, bias=False)
              )
              (lora_B): ModuleDict(
                (default): Linear(in_features=8, out_features=18944, bias=False)
              )
              (lora_embedding_A): ParameterDict()
              (lora_embedding_B): ParameterDict()
              (lora_magnitude_vector): ModuleDict()
            )
            (up_proj): lora.Linear(
              (base_layer): Linear(in_features=3584, out_features=18944, bias=False)
              (lora_dropout): ModuleDict(
                (default): Identity()
              )
              (lora_A): ModuleDict(
                (default): Linear(in_features=3584, out_features=8, bias=False)
              )
              (lora_B): ModuleDict(
                (default): Linear(in_features=8, out_features=18944, bias=False)
              )
              (lora_embedding_A): ParameterDict()
              (lora_embedding_B): ParameterDict()
              (lora_magnitude_vector): ModuleDict()
            )
            (down_proj): lora.Linear(
              (base_layer): Linear(in_features=18944, out_features=3584, bias=False)
              (lora_dropout): ModuleDict(
                (default): Identity()
              )
              (lora_A): ModuleDict(
                (default): Linear(in_features=18944, out_features=8, bias=False)
              )
              (lora_B): ModuleDict(
                (default): Linear(in_features=8, out_features=3584, bias=False)
              )
              (lora_embedding_A): ParameterDict()
              (lora_embedding_B): ParameterDict()
              (lora_magnitude_vector): ModuleDict()
            )
            (act_fn): SiLU()
          )
          (input_layernorm): Qwen2RMSNorm((3584,), eps=1e-06)
          (post_attention_layernorm): Qwen2RMSNorm((3584,), eps=1e-06)
        )
      )
      (norm): Qwen2RMSNorm((3584,), eps=1e-06)
    )
  )
  (embed_tokens): Embedding(152064, 3584)
  (layers): ModuleList(
    (0-27): 28 x Qwen2DecoderLayer(
      (self_attn): Qwen2Attention(
        (q_proj): lora.Linear(
          (base_layer): Linear(in_features=3584, out_features=3584, bias=True)
          (lora_dropout): ModuleDict(
            (default): Identity()
          )
          (lora_A): ModuleDict(
            (default): Linear(in_features=3584, out_features=8, bias=False)
          )
          (lora_B): ModuleDict(
            (default): Linear(in_features=8, out_features=3584, bias=False)
          )
          (lora_embedding_A): ParameterDict()
          (lora_embedding_B): ParameterDict()
          (lora_magnitude_vector): ModuleDict()
        )
        (k_proj): lora.Linear(
          (base_layer): Linear(in_features=3584, out_features=512, bias=True)
          (lora_dropout): ModuleDict(
            (default): Identity()
          )
          (lora_A): ModuleDict(
            (default): Linear(in_features=3584, out_features=8, bias=False)
          )
          (lora_B): ModuleDict(
            (default): Linear(in_features=8, out_features=512, bias=False)
          )
          (lora_embedding_A): ParameterDict()
          (lora_embedding_B): ParameterDict()
          (lora_magnitude_vector): ModuleDict()
        )
        (v_proj): lora.Linear(
          (base_layer): Linear(in_features=3584, out_features=512, bias=True)
          (lora_dropout): ModuleDict(
            (default): Identity()
          )
          (lora_A): ModuleDict(
            (default): Linear(in_features=3584, out_features=8, bias=False)
          )
          (lora_B): ModuleDict(
            (default): Linear(in_features=8, out_features=512, bias=False)
          )
          (lora_embedding_A): ParameterDict()
          (lora_embedding_B): ParameterDict()
          (lora_magnitude_vector): ModuleDict()
        )
        (o_proj): lora.Linear(
          (base_layer): Linear(in_features=3584, out_features=3584, bias=False)
          (lora_dropout): ModuleDict(
            (default): Identity()
          )
          (lora_A): ModuleDict(
            (default): Linear(in_features=3584, out_features=8, bias=False)
          )
          (lora_B): ModuleDict(
            (default): Linear(in_features=8, out_features=3584, bias=False)
          )
          (lora_embedding_A): ParameterDict()
          (lora_embedding_B): ParameterDict()
          (lora_magnitude_vector): ModuleDict()
        )
        (rotary_emb): Qwen2RotaryEmbedding()
      )
      (mlp): Qwen2MLP(
        (gate_proj): lora.Linear(
          (base_layer): Linear(in_features=3584, out_features=18944, bias=False)
          (lora_dropout): ModuleDict(
            (default): Identity()
          )
          (lora_A): ModuleDict(
            (default): Linear(in_features=3584, out_features=8, bias=False)
          )
          (lora_B): ModuleDict(
            (default): Linear(in_features=8, out_features=18944, bias=False)
          )
          (lora_embedding_A): ParameterDict()
          (lora_embedding_B): ParameterDict()
          (lora_magnitude_vector): ModuleDict()
        )
        (up_proj): lora.Linear(
          (base_layer): Linear(in_features=3584, out_features=18944, bias=False)
          (lora_dropout): ModuleDict(
            (default): Identity()
          )
          (lora_A): ModuleDict(
            (default): Linear(in_features=3584, out_features=8, bias=False)
          )
          (lora_B): ModuleDict(
            (default): Linear(in_features=8, out_features=18944, bias=False)
          )
          (lora_embedding_A): ParameterDict()
          (lora_embedding_B): ParameterDict()
          (lora_magnitude_vector): ModuleDict()
        )
        (down_proj): lora.Linear(
          (base_layer): Linear(in_features=18944, out_features=3584, bias=False)
          (lora_dropout): ModuleDict(
            (default): Identity()
          )
          (lora_A): ModuleDict(
            (default): Linear(in_features=18944, out_features=8, bias=False)
          )
          (lora_B): ModuleDict(
            (default): Linear(in_features=8, out_features=3584, bias=False)
          )
          (lora_embedding_A): ParameterDict()
          (lora_embedding_B): ParameterDict()
          (lora_magnitude_vector): ModuleDict()
        )
        (act_fn): SiLU()
      )
      (input_layernorm): Qwen2RMSNorm((3584,), eps=1e-06)
      (post_attention_layernorm): Qwen2RMSNorm((3584,), eps=1e-06)
    )
  )
  (norm): Qwen2RMSNorm((3584,), eps=1e-06)
…
base_model.model.model.layers.0.mlp.up_proj.lora_A.default.weight: shape=(8, 3584) dtype=torch.float32
base_model.model.model.layers.0.mlp.up_proj.lora_B.default.weight: shape=(18944, 8) dtype=torch.float32
base_model.model.model.layers.0.mlp.down_proj.lora_A.default.weight: shape=(8, 18944) dtype=torch.float32
base_model.model.model.layers.0.mlp.down_proj.lora_B.default.weight: shape=(3584, 8) dtype=torch.float32
model_after ensure_hybrid_parallel_compatibility booster:: PeftModelForCausalLM(
  (base_model): LoraModel(
    (model): Qwen2ForCausalLM(
      (model): Qwen2Model(
        (embed_tokens): Embedding(152064, 3584)
        (layers): ModuleList(
          (0-27): 28 x Qwen2DecoderLayer(
            (self_attn): Qwen2Attention(
              (q_proj): lora.Linear(
                (base_layer): Linear(in_features=3584, out_features=3584, bias=True)
                (lora_dropout): ModuleDict(
                  (default): Identity()
                )
                (lora_A): ModuleDict(
                  (default): Linear(in_features=3584, out_features=8, bias=False)
                )
                (lora_B): ModuleDict(
                  (default): Linear(in_features=8, out_features=3584, bias=False)
                )
                (lora_embedding_A): ParameterDict()
                (lora_embedding_B): ParameterDict()
                (lora_magnitude_vector): ModuleDict()
              )
              (k_proj): lora.Linear(
                (base_layer): Linear(in_features=3584, out_features=512, bias=True)
                (lora_dropout): ModuleDict(
                  (default): Identity()
                )
                (lora_A): ModuleDict(
                  (default): Linear(in_features=3584, out_features=8, bias=False)
                )
                (lora_B): ModuleDict(
                  (default): Linear(in_features=8, out_features=512, bias=False)
                )
                (lora_embedding_A): ParameterDict()
                (lora_embedding_B): ParameterDict()
                (lora_magnitude_vector): ModuleDict()
              )
              (v_proj): lora.Linear(
                (base_layer): Linear(in_features=3584, out_features=512, bias=True)
                (lora_dropout): ModuleDict(
                  (default): Identity()
                )
                (lora_A): ModuleDict(
                  (default): Linear(in_features=3584, out_features=8, bias=False)
                )
                (lora_B): ModuleDict(
                  (default): Linear(in_features=8, out_features=512, bias=False)
                )
                (lora_embedding_A): ParameterDict()
                (lora_embedding_B): ParameterDict()
                (lora_magnitude_vector): ModuleDict()
              )
              (o_proj): lora.Linear(
                (base_layer): Linear(in_features=3584, out_features=3584, bias=False)
                (lora_dropout): ModuleDict(
                  (default): Identity()
                )
                (lora_A): ModuleDict(
                  (default): Linear(in_features=3584, out_features=8, bias=False)
                )
                (lora_B): ModuleDict(
                  (default): Linear(in_features=8, out_features=3584, bias=False)
                )
                (lora_embedding_A): ParameterDict()
                (lora_embedding_B): ParameterDict()
                (lora_magnitude_vector): ModuleDict()
              )
              (rotary_emb): Qwen2RotaryEmbedding()
            )
            (mlp): Qwen2MLP(
              (gate_proj): lora.Linear(
                (base_layer): Linear(in_features=3584, out_features=18944, bias=False)
                (lora_dropout): ModuleDict(
                  (default): Identity()
                )
                (lora_A): ModuleDict(
                  (default): Linear(in_features=3584, out_features=8, bias=False)
                )
                (lora_B): ModuleDict(
                  (default): Linear(in_features=8, out_features=18944, bias=False)
                )
                (lora_embedding_A): ParameterDict()
                (lora_embedding_B): ParameterDict()
                (lora_magnitude_vector): ModuleDict()
              )
              (up_proj): lora.Linear(
                (base_layer): Linear(in_features=3584, out_features=18944, bias=False)
                (lora_dropout): ModuleDict(
                  (default): Identity()
                )
                (lora_A): ModuleDict(
                  (default): Linear(in_features=3584, out_features=8, bias=False)
                )
                (lora_B): ModuleDict(
                  (default): Linear(in_features=8, out_features=18944, bias=False)
                )
                (lora_embedding_A): ParameterDict()
                (lora_embedding_B): ParameterDict()
                (lora_magnitude_vector): ModuleDict()
              )
              (down_proj): lora.Linear(
                (base_layer): Linear(in_features=18944, out_features=3584, bias=False)
                (lora_dropout): ModuleDict(
                  (default): Identity()
                )
                (lora_A): ModuleDict(
                  (default): Linear(in_features=18944, out_features=8, bias=False)
                )
                (lora_B): ModuleDict(
                  (default): Linear(in_features=8, out_features=3584, bias=False)
                )
                (lora_embedding_A): ParameterDict()
                (lora_embedding_B): ParameterDict()
                (lora_magnitude_vector): ModuleDict()
              )
              (act_fn): SiLU()
            )
            (input_layernorm): Qwen2RMSNorm((3584,), eps=1e-06)
            (post_attention_layernorm): Qwen2RMSNorm((3584,), eps=1e-06)
          )
        )
        (norm): Qwen2RMSNorm((3584,), eps=1e-06)
        (rotary_emb): Qwen2RotaryEmbedding()
      )
      (lm_head): Linear(in_features=3584, out_features=152064, bias=False)
      (embed_tokens): Embedding(152064, 3584)
      (layers): ModuleList(
        (0-27): 28 x Qwen2DecoderLayer(
          (self_attn): Qwen2Attention(
            (q_proj): lora.Linear(
              (base_layer): Linear(in_features=3584, out_features=3584, bias=True)
              (lora_dropout): ModuleDict(
                (default): Identity()
              )
              (lora_A): ModuleDict(
                (default): Linear(in_features=3584, out_features=8, bias=False)
              )
              (lora_B): ModuleDict(
                (default): Linear(in_features=8, out_features=3584, bias=False)
              )
              (lora_embedding_A): ParameterDict()
              (lora_embedding_B): ParameterDict()
              (lora_magnitude_vector): ModuleDict()
            )
            (k_proj): lora.Linear(
              (base_layer): Linear(in_features=3584, out_features=512, bias=True)
              (lora_dropout): ModuleDict(
                (default): Identity()
              )
              (lora_A): ModuleDict(
                (default): Linear(in_features=3584, out_features=8, bias=False)
              )
              (lora_B): ModuleDict(
                (default): Linear(in_features=8, out_features=512, bias=False)
              )
              (lora_embedding_A): ParameterDict()
              (lora_embedding_B): ParameterDict()
              (lora_magnitude_vector): ModuleDict()
            )
            (v_proj): lora.Linear(
              (base_layer): Linear(in_features=3584, out_features=512, bias=True)
              (lora_dropout): ModuleDict(
                (default): Identity()
              )
              (lora_A): ModuleDict(
                (default): Linear(in_features=3584, out_features=8, bias=False)
              )
              (lora_B): ModuleDict(
                (default): Linear(in_features=8, out_features=512, bias=False)
              )
              (lora_embedding_A): ParameterDict()
              (lora_embedding_B): ParameterDict()
              (lora_magnitude_vector): ModuleDict()
            )
            (o_proj): lora.Linear(
              (base_layer): Linear(in_features=3584, out_features=3584, bias=False)
              (lora_dropout): ModuleDict(
                (default): Identity()
              )
              (lora_A): ModuleDict(
                (default): Linear(in_features=3584, out_features=8, bias=False)
              )
              (lora_B): ModuleDict(
                (default): Linear(in_features=8, out_features=3584, bias=False)
              )
              (lora_embedding_A): ParameterDict()
              (lora_embedding_B): ParameterDict()
              (lora_magnitude_vector): ModuleDict()
            )
            (rotary_emb): Qwen2RotaryEmbedding()
          )
          (mlp): Qwen2MLP(
            (gate_proj): lora.Linear(
              (base_layer): Linear(in_features=3584, out_features=18944, bias=False)
              (lora_dropout): ModuleDict(
                (default): Identity()
              )
              (lora_A): ModuleDict(
                (default): Linear(in_features=3584, out_features=8, bias=False)
              )
              (lora_B): ModuleDict(
                (default): Linear(in_features=8, out_features=18944, bias=False)
              )
              (lora_embedding_A): ParameterDict()
              (lora_embedding_B): ParameterDict()
              (lora_magnitude_vector): ModuleDict()
            )
            (up_proj): lora.Linear(
              (base_layer): Linear(in_features=3584, out_features=18944, bias=False)
              (lora_dropout): ModuleDict(
                (default): Identity()
              )
              (lora_A): ModuleDict(
                (default): Linear(in_features=3584, out_features=8, bias=False)
              )
              (lora_B): ModuleDict(
                (default): Linear(in_features=8, out_features=18944, bias=False)
              )
              (lora_embedding_A): ParameterDict()
              (lora_embedding_B): ParameterDict()
              (lora_magnitude_vector): ModuleDict()
            )
            (down_proj): lora.Linear(
              (base_layer): Linear(in_features=18944, out_features=3584, bias=False)
              (lora_dropout): ModuleDict(
                (default): Identity()
              )
              (lora_A): ModuleDict(
                (default): Linear(in_features=18944, out_features=8, bias=False)
              )
              (lora_B): ModuleDict(
                (default): Linear(in_features=8, out_features=3584, bias=False)
              )
              (lora_embedding_A): ParameterDict()
              (lora_embedding_B): ParameterDict()
              (lora_magnitude_vector): ModuleDict()
            )
            (act_fn): SiLU()
          )
          (input_layernorm): Qwen2RMSNorm((3584,), eps=1e-06)
          (post_attention_layernorm): Qwen2RMSNorm((3584,), eps=1e-06)
        )
      )
      (norm): Qwen2RMSNorm((3584,), eps=1e-06)
    )
  )
  (embed_tokens): Embedding(152064, 3584)
  (layers): ModuleList(
    (0-27): 28 x Qwen2DecoderLayer(
      (self_attn): Qwen2Attention(
        (q_proj): lora.Linear(
          (base_layer): Linear(in_features=3584, out_features=3584, bias=True)
          (lora_dropout): ModuleDict(
            (default): Identity()
          )
          (lora_A): ModuleDict(
            (default): Linear(in_features=3584, out_features=8, bias=False)
          )
          (lora_B): ModuleDict(
            (default): Linear(in_features=8, out_features=3584, bias=False)
          )
          (lora_embedding_A): ParameterDict()
          (lora_embedding_B): ParameterDict()
          (lora_magnitude_vector): ModuleDict()
        )
        (k_proj): lora.Linear(
          (base_layer): Linear(in_features=3584, out_features=512, bias=True)
          (lora_dropout): ModuleDict(
            (default): Identity()
          )
          (lora_A): ModuleDict(
            (default): Linear(in_features=3584, out_features=8, bias=False)
          )
          (lora_B): ModuleDict(
            (default): Linear(in_features=8, out_features=512, bias=False)
          )
          (lora_embedding_A): ParameterDict()
          (lora_embedding_B): ParameterDict()
          (lora_magnitude_vector): ModuleDict()
        )
        (v_proj): lora.Linear(
          (base_layer): Linear(in_features=3584, out_features=512, bias=True)
          (lora_dropout): ModuleDict(
            (default): Identity()
          )
          (lora_A): ModuleDict(
            (default): Linear(in_features=3584, out_features=8, bias=False)
          )
          (lora_B): ModuleDict(
            (default): Linear(in_features=8, out_features=512, bias=False)
          )
          (lora_embedding_A): ParameterDict()
          (lora_embedding_B): ParameterDict()
          (lora_magnitude_vector): ModuleDict()
        )
        (o_proj): lora.Linear(
          (base_layer): Linear(in_features=3584, out_features=3584, bias=False)
          (lora_dropout): ModuleDict(
            (default): Identity()
          )
          (lora_A): ModuleDict(
            (default): Linear(in_features=3584, out_features=8, bias=False)
          )
          (lora_B): ModuleDict(
            (default): Linear(in_features=8, out_features=3584, bias=False)
          )
          (lora_embedding_A): ParameterDict()
          (lora_embedding_B): ParameterDict()
          (lora_magnitude_vector): ModuleDict()
        )
        (rotary_emb): Qwen2RotaryEmbedding()
      )
      (mlp): Qwen2MLP(
        (gate_proj): lora.Linear(
          (base_layer): Linear(in_features=3584, out_features=18944, bias=False)
          (lora_dropout): ModuleDict(
            (default): Identity()
          )
          (lora_A): ModuleDict(
            (default): Linear(in_features=3584, out_features=8, bias=False)
          )
          (lora_B): ModuleDict(
            (default): Linear(in_features=8, out_features=18944, bias=False)
          )
          (lora_embedding_A): ParameterDict()
          (lora_embedding_B): ParameterDict()
          (lora_magnitude_vector): ModuleDict()
        )
        (up_proj): lora.Linear(
          (base_layer): Linear(in_features=3584, out_features=18944, bias=False)
          (lora_dropout): ModuleDict(
            (default): Identity()
          )
          (lora_A): ModuleDict(
            (default): Linear(in_features=3584, out_features=8, bias=False)
          )
          (lora_B): ModuleDict(
            (default): Linear(in_features=8, out_features=18944, bias=False)
          )
          (lora_embedding_A): ParameterDict()
          (lora_embedding_B): ParameterDict()
          (lora_magnitude_vector): ModuleDict()
        )
        (down_proj): lora.Linear(
          (base_layer): Linear(in_features=18944, out_features=3584, bias=False)
          (lora_dropout): ModuleDict(
            (default): Identity()
          )
          (lora_A): ModuleDict(
            (default): Linear(in_features=18944, out_features=8, bias=False)
          )
          (lora_B): ModuleDict(
            (default): Linear(in_features=8, out_features=3584, bias=False)
          )
          (lora_embedding_A): ParameterDict()
          (lora_embedding_B): ParameterDict()
          (lora_magnitude_vector): ModuleDict()
        )
        (act_fn): SiLU()
      )
      (input_layernorm): Qwen2RMSNorm((3584,), eps=1e-06)
      (post_attention_layernorm): Qwen2RMSNorm((3584,), eps=1e-06)
    )
  )
  (norm): Qwen2RMSNorm((3584,), eps=1e-06)
…
